model_weights.pth (torch, 47773 bytes, 5 tensors)

model.0.weight f4 [128, 21]
0.045123346 -0.035686992 0.04044467 -0.22624236 0.08078799 -0.023093944 -0.17685051 -0.056822978
-0.015248354 -0.06769413 -0.22721048 0.05129143 0.023141582 -0.16762818 -0.07319788 0.09463817
-0.09959896 0.048220035 -0.3128588 -0.043433856 0.027038304 -0.060504068 -0.03726149 -0.10123241
0.047432963 0.13073477 -0.09351006 -0.19395386 0.116337754 -0.14527817 -0.059234615 -0.20769836
0.15077105 0.034755748 0.044534862 0.17499407 0.04426632 0.20841268 0.18849011 -0.17836088
-0.013983087 0.010326042 0.23223695 -0.046297226 0.286216 -0.01675301 0.14096537 -0.11373786
-0.089129396 0.04858316 0.12169174 -0.002458742 -0.053343937 0.26753768 -0.05054014 -0.03861392
0.18528976 0.21184947 0.12739804 0.20446041 0.14726375 -0.16519764 -0.047423773 0.15273744
0.11509495 0.16537899 0.025550276 0.17291294 0.06314513 -0.03958868 0.017765207 0.09622997
-0.011451389 -0.15651508 -0.14871877 0.06728033 0.00035076626 -0.22836189 0.10327672 -0.12236307
-0.20777556 -0.119831055 0.0753962 -0.15369812 0.20590228 0.20445995 0.0154527435 0.057469312
-0.009791642 -0.14317499 0.1054769 -0.018739916 0.09359664 0.0215757 -0.1598961 0.093959555
0.14520037 0.2513653 -0.083062604 -0.018275674 0.04682677 -0.102111965 -0.09854913 -0.06892489
-0.06574468 0.0012118698 0.14031592 0.18099988 0.0873616 -0.18233956 0.03919462 -0.05737768
-0.053329043 -0.16672601 0.013248188 0.072026156 -0.0017187579 -0.06774762 -0.16580066 0.07030471
0.048612777 0.21885766 0.0785287 0.0004846627 0.111571826 -0.06086822 -0.03623918 -0.19023599
-0.17203699 -0.12858677 0.13018091 -0.1397446 -0.06814933 -0.079315476 0.06215047 -0.13259204
0.18689267 -0.057976324 -0.027931105 -0.21965794 0.08291977 -0.014049063 -0.03989182 -0.07697399
-0.17365405 0.056714017 0.2019039 0.07343423 0.06661042 -0.06698967 -0.10531412 0.10328909
0.08897568 0.11179538 0.06498886 0.025473028 -0.110337906 -0.16743584 0.06709879 -0.078445375
-0.32594734 0.055586644 -0.12610394 -0.1154951 -0.10227783 -0.19052769 -0.014799053 0.22465391
0.053733617 0.02280267 0.01750172 0.18330371 0.03263459 0.06727836 -0.017198477 0.041185673
-0.058906715 -0.14522535 -0.019874642 -0.14873974 0.04819662 0.0656279 0.15421075 0.10393584
-0.1786231 0.102979295 0.27254593 -0.05517233 0.0859824 0.0143469535 0.16246599 -0.091582395
0.054483023 0.04946414 0.10804844 0.031681802 0.07445222 -0.019041244 -0.025734272 0.123479515
-0.07534781 -0.05148004 0.14843312 0.031644028 0.12512217 0.0582933 -0.062804654 -0.22446248
0.041244663 0.12284417 -0.21773694 0.006741997 -0.035482332 -0.1730638 -0.08840217 -0.081834026
-0.117124006 -0.01135241 0.09617975 0.023600154 -0.05507381 0.017214436 0.13409722 -0.2934491
0.093259595 -0.2108233 0.11764856 0.09655016 -0.29633722 0.015152231 0.03497293 0.20184515
0.27835155 -0.037871804 0.004081131 0.068861954 -0.18089744 -0.049125575 -0.19366686 0.13215904
0.080017306 0.06735861 0.01735469 0.035762586 -0.011918346 0.13015522 0.21641356 0.008850316
0.084638536 -0.060146935 0.07934362 0.09749057 -0.10050689 -0.18162508 0.13703549 -0.21802694
00000000: 42d3 383d 862c 12bd 4fa9 253d 14ac 67be
00000010: 2c74 a53d 832f bdbc 4d18 35be 36bf 68bd
00000020: 3bd4 79bc 38a3 8abd dda9 68be f616 523d
00000030: 6a93 bd3c b9a6 2bbe c5e8 95bd a8d1 c13d
00000040: 8afa cbbd 5f82 453d 072f a0be b3e7 31bd
00000050: 6f7f dd3c 1dd3 77bd 819f 18bd f052 cfbd
00000060: 1149 423d 56df 053e 3482 bfbd d79b 46be
00000070: 7d42 ee3d cdc3 14be ff9f 72bd e1ae 54be
00000080: ba63 1a3e 0b5c 0e3d 306a 363d a531 333e
00000090: 9a50 353d 226a 553e 8d03 413e 3ca4 36be
000000a0: 5119 65bc 8f2e 293c 86cf 6d3e 29a2 3dbd
000000b0: e78a 923e 9c3d 89bc 3a59 103e 65ef e8bd
000000c0: 7989 b6bd 23ff 463d 8539 f93d d822 21bb
000000d0: 2c7f 5abd b3fa 883e 2e03 4fbd a129 1ebd
000000e0: 99bc 3d3e 11ef 583e a274 023e 125e 513e
000000f0: 4fcc 163e 9229 29be 6e3f 42bd 3467 1c3e
00000100: e7b6 eb3d 1c59 293e d04e d13c 1710 313e
00000110: 3c52 813d bd27 22bd 5788 913c 3814 c53d
00000120: 9b9e 3bbc 7d45 20be bc49 18be 45ca 893d
00000130: 0de7 b739 b3d7 69be bf82 d33d 7d99 fabd
00000140: 1ec3 54be fc69 f5bd 5369 9a3d 0a63 1dbe
00000150: 0cd8 523e f35d 513e 812d 7d3c f164 6b3d
00000160: 206d 20bc 779c 12be 4604 d83d 7484 99bc
00000170: 98af bf3d 86bf b03c cebb 23be de6d c03d
00000180: 68af 143e f4b2 803e ba1c aabd deb6 95bc
00000190: 6dcd 3f3d 1420 d1bd 20d4 c9bd 7e28 8dbd
000001a0: 26a5 86bd 9ad7 9e3a faae 0f3e 0858 393e
000001b0: a3ea b23d 39b7 3abe 8a8a 203d dc04 6bbd
000001c0: 8e6f 5abd 39ba 2abe ee0e 593c 7382 933d
000001d0: f247 e1ba 44bf 8abd a6c7 29be eafb 8f3d
000001e0: 311e 473d 391c 603e a8d3 a03d 541a fe39
000001f0: c57f e43d f450 79bd 896f 14bd 39cd 42be
00000200: 772a 30be 40ac 03be 254e 053e 3519 0fbe
00000210: e091 8bbd 2770 a2bd 7e91 7e3d 35c6 07be
00000220: cb60 3f3e 9578 6dbd c6cf e4bc 03ee 60be
00000230: d7d1 a93d 0b2e 66bc 9b65 23bd 8aa4 9dbd
00000240: 5ed2 31be f54c 683d e5bf 4e3e b064 963d
00000250: 0b6b 883d e131 89bd eeae d7bd 3b89 d33d
00000260: e238 b63d faf4 e43d e118 853d d0ac d03c
00000270: d7f8 e1bd 4d74 2bbe 176b 893d f8a7 a0bd
00000280: 92e2 a6be d2ae 633d 6421 01be b288 ecbd
00000290: 0a77 d1bd b119 43be ba77 72bc ad0b 663e
000002a0: c817 5c3d aacc ba3c c45f 8f3c f8b3 3b3e
000002b0: d9ab 053d 3dc9 893d d2e3 8cbc 4fb2 283d
000002c0: 2b48 71bd f4b5 14be 25d0 a2bc 3b4f 18be
000002d0: d269 453d ec67 863d 6ce9 1d3e 50dc d43d
000002e0: f9e8 36be cfe6 d23d 248b 8b3e 62fc 61bd
000002f0: 8a17 b03d 7c0f 6b3c 7c5d 263e 8d8f bbbd
00000300: 9729 5f3d e99a 4a3d 8048 dd3d c7c4 013d
00000310: 687a 983d 62fc 9bbc aed0 d2bc d4e2 fc3d
00000320: f44f 9abd bcdc 52bd dafe 173e 2b9d 013d
00000330: 0720 003e f5c4 6e3d ba9f 80bd 7ed9 65be
00000340: 2af0 283d b995 fb3d 6ff6 5ebe f8eb dc3b
00000350: ec55 11bd a337 31be 320c b5bd 9998 a7bd
00000360: b6de efbd 75ff 39bc e4f9 c43d 1c55 c13c
00000370: 1395 61bd 4a05 8d3c c850 093e f63e 96be
00000380: e3fe be3d 10e2 57be baf1 f03d 17bc c53d
00000390: 83b9 97be 1041 783c c63f 0f3d 7fb0 4e3e
000003a0: 1884 8e3e 771f 1bbd 02bb 853b 7f07 8d3d
000003b0: 2e3d 39be e637 49bd 9b50 46be b354 073e
000003c0: 1de0 a33d 50f3 893d 6c2b 8e3c ca7b 123d
000003d0: 2b45 43bc 6947 053e 849b 5d3e ea00 113c
000003e0: f856 ad3d a25c 76bd e87e a23d 23a9 c73d
000003f0: 8ed6 cdbd edfb 39be 0853 0c3e 7442 5fbe

model.0.bias f4 [128]
-0.014485747 -0.14325124 -0.10434758 0.033594728 -0.011673675 0.13413991 0.04427392 -0.12230475
0.23994343 -0.04463306 -0.07690616 0.06868546 0.013823282 0.15989894 0.05093217 -0.11240353
-0.017885966 -0.13175234 0.15329893 0.037229605 -0.16932304 -0.026017135 0.24037705 0.08420759
-0.15221617 0.17922013 0.15035038 -0.030392114 0.1672425 -0.099289045 -0.007554739 0.17104954
-0.17495829 0.029356875 0.09432751 -0.23479168 0.047724914 -0.17091253 -0.046748463 -0.17872831
0.15319502 -0.14831285 0.24767776 -0.03303541 -0.06457899 0.11319278 0.10643809 0.07045287
-0.10250112 0.028381588 -0.039558735 -0.20726304 -0.16553748 0.032826845 0.20028736 -0.15810438
-0.054841988 -0.07393102 -0.036131743 -0.20055781 -0.15072931 -0.01809643 0.027119303 -0.09866903
0.03317711 0.1522514 0.13801664 0.16669643 -0.08400625 0.043510787 -0.017585542 -0.13998668
-0.12740743 -0.0132866595 -0.16242152 0.047946293 0.07461838 0.009436194 0.12724295 0.07002245
0.1367781 0.18511093 0.08964441 0.18469189 -0.1733609 -0.2279767 0.054353587 -0.14773834
0.10936441 -0.039838787 0.14140657 0.029488912 0.032088373 -0.13462852 0.057154723 -0.08186951
0.1224921 0.08155286 0.07257829 -0.016982159 -0.051810697 0.08967321 0.06998175 0.07057983
-0.23104838 -0.11245718 -0.03679649 -0.2118222 0.14067014 -0.11682614 0.043483537 -0.032579932
-0.06722544 0.13772829 0.18697529 -0.18001398 -0.082144156 0.11590071 -0.1421694 -0.08955146
-0.079635814 -0.15329774 -0.089323714 -0.10788649 0.21911637 -0.17110772 0.07017123 0.02213016
00000000: a055 6dbc 74b0 12be 2fb4 d5bd a09a 093d
00000010: f142 3fbc f95b 093e 9258 353d ea7a fabd
00000020: bbb3 753e 28d1 36bd fa80 9dbd f6aa 8c3d
00000030: 0c7b 623c 8cbc 233e 409e 503d d233 e6bd
00000040: 9785 92bc 16ea 06be 65fa 1c3e 127e 183d
00000050: 0563 2dbe e321 d5bc 6725 763e 0775 ac3d
00000060: 8ede 1bbe 7b85 373e 73f5 193e e2f8 f8bc
00000070: 9e41 2b3e 0e58 cbbd be8d f7bb 9c27 2f3e
00000080: 4428 33be d47d f03c c82e c13d 3b6d 70be
00000090: 337b 433d b203 2fbe 517b 3fbd 8e04 37be
000000a0: 28df 1c3e 53df 17be 3d9f 7d3e 2350 07bd
000000b0: fd41 84bd 9ed1 e73d 37fc d93d 9849 903d
000000c0: 1bec d1bd 8180 e83c 5708 22bd c33c 54be
000000d0: a882 29be 7175 063d 2118 4d3e 1de6 21be
000000e0: fea1 60bd 2669 97bd e1fe 13bd 075f 4dbe
000000f0: c958 1abe f73e 94bc 4d29 de3c fd12 cabd
00000100: b9e4 073d cae7 1b3e 3c54 0d3e 78b2 2a3e
00000110: 780b acbd 5e38 323d 8e0f 90bc ab58 0fbe
00000120: 1877 02be 4ab0 59bc d451 26be 5563 443d
00000130: 85d1 983d 449a 1a3c fa4b 023e ee67 8f3d
00000140: 8f0f 0c3e b88d 3d3e 7d97 b73d df1f 3d3e
00000150: 8585 31be b972 69be dea1 5e3d b848 17be
00000160: 73fa df3d ff2d 23bd e2cc 103e bb92 f13c
00000170: 196f 033d 0fdc 09be 121b 6a3d 34ab a7bd
00000180: 23dd fa3d 3005 a73d eda3 943d 2b1e 8bbc
00000190: 7437 54bd 97a6 b73d 9752 8f3d 288c 903d
000001a0: f297 6cbe f34f e6bd ebb7 16bd ebe7 58be
000001b0: d50b 103e 8b42 efbd cb1b 323d 8972 05bd
000001c0: 7ead 89bd a508 0d3e 7376 3f3e 9655 38be
000001d0: 323b a8bd 5a5d ed3d db94 11be c266 b7bd
000001e0: 1a18 a3bd 15fa 1cbe 5aef b6bd 98f3 dcbd
000001f0: 0b60 603e dd36 2fbe efb5 8f3d 4f4a b53c

model.3.weight f4 [64, 128]
0.124389395 0.10305821 -0.044002973 0.049389556 -0.08461079 0.012965655 0.08200548 0.01745818
-0.07822788 0.009201993 0.060248856 -0.061052207 0.080273576 -0.039421283 0.041139778 0.044952806
-0.036120176 0.042185597 0.030040853 0.06140991 0.00071929826 -0.022671659 -0.012992332 0.024524786
-0.012737002 0.054818884 -0.085888274 -0.10215692 -0.033261213 0.035996344 -0.010020688 -0.04942937
0.014061642 -0.026673641 -0.04700931 -0.029753346 0.025552517 -0.09003608 -0.02690062 -0.07469923
0.093171746 0.0164217 -0.07764951 0.047334787 -0.10397617 -0.0017709435 -0.036951527 -0.0049456274
0.08687216 -0.086707756 -0.044636585 0.08146334 0.029377403 0.061201207 0.034511015 0.0164292
0.015660265 -0.06637539 0.022835903 -0.015449854 -0.050814264 -0.013799461 -0.05187851 0.04994458
0.010767608 -0.08130821 -0.005634369 0.011987161 -0.0071364734 -0.062741 0.09551618 -0.021304946
-0.11032237 -0.062120818 0.029251648 -0.017698256 0.046344105 -0.04204903 0.011346555 -0.09096552
0.058966625 0.10317174 -0.03033837 0.09367714 0.07602432 0.087248236 0.09214949 0.07292485
0.008599249 -0.018389774 -0.015896605 0.07385832 -0.048167527 0.022650164 0.017908828 -0.09325816
-0.061128944 -0.029911391 0.028331589 0.06576902 0.07364434 -0.05262549 -0.0106724175 -0.045382153
0.036771588 -0.022271851 0.0059639052 0.073456585 -0.008003811 0.08222344 -0.073101856 0.055068817
0.018054865 -0.023348246 0.0067368555 -0.0026402746 -0.02342201 0.06634473 0.023376977 -0.0061673
-0.09212129 0.028248245 0.07167184 -0.024357311 -0.09706328 -0.10212268 -0.072863325 0.04017779
0.040421292 0.0054731625 0.021349572 -0.036152963 -0.04898603 -0.055667043 0.027957601 -0.027221316
-0.051106088 -0.009330016 0.0369229 -0.015435844 0.06423048 -0.042370867 0.11676253 0.04579725
-0.0036727835 0.0653861 0.035751823 -0.042142857 -0.028036864 0.008796887 0.04330966 -0.09168608
0.12481329 -0.023900963 0.03471468 0.02512155 0.015058426 0.02766629 -0.03303133 0.033897612
0.13208164 0.09098656 0.07220429 -0.056915734 0.03895354 -0.03510232 0.089257784 0.066579804
-0.034355152 0.063857965 0.018402014 -0.052475546 -0.10401568 -0.0033024037 0.13255836 -0.08831231
0.11243204 0.05079571 0.039191034 0.0933891 0.057472244 -0.047793247 -0.0107908975 0.09195891
0.094473906 -0.16901658 0.1314362 -0.05626929 0.047126796 -0.04012415 -0.08365238 0.013617084
0.031119065 0.08399757 0.02187476 0.03395679 -0.07228759 -0.054645244 0.057513118 0.0652664
-0.02344559 0.021309916 0.041477703 -0.024574725 -0.08910522 0.057801776 0.051455196 0.014364608
-0.0018575247 -0.0062284004 -0.08702691 0.041578557 0.008503618 0.16067167 0.08833918 0.030363904
0.05626981 -0.06763818 -0.027037412 0.086084835 -0.029808436 -0.0042024534 0.08333833 0.031022016
-0.058313776 -0.035907242 0.0065635233 -0.05763692 -0.00574224 -0.064776376 -0.12259335 0.004789727
0.11443072 0.11783308 0.06965812 0.004714135 0.10061737 -0.07672503 0.10469714 0.0034638017
-0.009959382 0.023285165 0.03378258 0.02398522 -0.044747543 0.041904256 -0.08044667 -0.055954136
0.015216211 0.029804125 -0.005228108 0.016256591 -0.0836107 -0.009384426 -0.0032660784 -0.026533758
00000000: debf fe3d 2f10 d33d 763c 34bd b44c 4a3d
00000010: 6c48 adbd e66d 543c 7df2 a73d 7504 8f3c
00000020: f035 a0bd f5c3 163c 81c7 763d e111 7abd
00000030: 7966 a43d 3678 21bd 2f82 283d 6f20 383d
00000040: c0f2 13bd ceca 2c3d 3c18 f63c f588 7b3d
00000050: 4a8f 3c3a eab9 b9bc cadd 54bc 34e8 c83c
00000060: dcae 50bc c489 603d 31e6 afbd a637 d1bd
00000070: e93c 08bd e770 133d d02d 24bc 7376 4abd
00000080: cd62 663c ae82 dabc d68c 40bd 4abd f3bc
00000090: 8353 d13c d664 b8bd b05e dcbc e9fb 98bd
000000a0: d4d0 be3d cd86 863c b506 9fbd 1fe2 413d
000000b0: 75f1 d4bd 011f e8ba 7c5a 17bd ee0e a2bb
000000c0: 08ea b13d d693 b1bd dad4 36bd 40d6 a63d
000000d0: e1a8 f03c 1eae 7a3d 6c5b 0d3d 8896 863c
000000e0: f549 803c d2ef 87bd 5c12 bb3c 6221 7dbc
000000f0: 9e22 50bd 2217 62bc 8f7e 54bd b092 4c3d
00000100: 9f6a 303c eb84 a6bd 83a0 b8bb cc65 443c
00000110: 14d9 e9bb 5a7e 80bd fd9d c33d b687 aebc
00000120: b2f0 e1bd 6672 7ebd 27a1 ef3c effb 90bc
00000130: 51d3 3d3d 9b3b 2cbd e7e6 393c 214c babd
00000140: fd86 713d b54b d33d 2c88 f8bc cdd9 bf3d
00000150: a4b2 9b3d 34af b23d dfb8 bc3d a059 953d
00000160: dde3 0c3c 27a6 96bc 9939 82bc 0843 973d
00000170: 504b 45bd d68c b93c 89b5 923c 22fe bebd
00000180: 5862 7abd bc08 f5bc a617 e83c e8b1 863d
00000190: d8d2 963d d38d 57bd 5ddb 2ebc a3e2 39bd
000001a0: ce9d 163d 7573 b6bc dd6c c33b 6870 963d
000001b0: 6b22 03bc c364 a83d 6db6 95bd d78f 613d
000001c0: cce7 933c d244 bfbc d7c0 dc3b 7508 2dbb
000001d0: 84df bfbc bfdf 873d 1381 bf3c 1017 cabb
000001e0: 16aa bcbd dd68 e73c b0c8 923d fc88 c7bc
000001f0: 1dc9 c6bd b225 d1bd 5e39 95bd 7791 243d
00000200: cc90 253d 3758 b33b 4ce5 ae3c 2115 14bd
00000210: 93a5 48bd 2003 64bd 5707 e53c 3dff debc
00000220: 9e54 51bd ecdc 18bc 773c 173d 9fe6 7cbc
00000230: 458b 833d 138d 2dbd 3121 ef3d e695 3b3d
00000240: 15b3 70bb 26e9 853d 8170 123d fd9d 2cbd
00000250: 91ad e5bc d120 103c 7865 313d e9c5 bbbd
00000260: 1c9e ff3d f4cb c3bc fb30 0e3d b5cb cd3c
00000270: 9eb7 763c 6aa4 e23c dc4b 07bd 39d8 0a3d
00000280: 6940 073e 2957 ba3d d8df 933d 7920 69bd
00000290: bf8d 1f3d 73c7 0fbd c9cc b63d fe5a 883d
000002a0: fdb7 0cbd f7c7 823d d2bf 963c 99f0 56bd
000002b0: 2c06 d5bd 246d 58bb 61bd 073e 16dd b4bd
000002c0: c542 e63d 2a0f 503d c786 203d c942 bf3d
000002d0: 0468 6b3d dac2 43bd 4ecc 30bc f454 bc3d
000002e0: 897b c13d af12 2dbe 3697 063e a17a 66bd
000002f0: 0708 413d 3959 24bd f051 abbd 311a 5f3c
00000300: 69ed fe3c eb06 ac3d b232 b33c 4616 0b3d
00000310: 840b 94bd b1d3 5fbd e092 6b3d 64aa 853d
00000320: f710 c0bc 2292 ae3c 86e4 293d ef50 c9bc
00000330: cc7c b6bd 8ec1 6c3d afc2 523d 8859 6b3c
00000340: 3078 f3ba 9c17 ccbb 2a3b b2bd 474e 2a3d
00000350: c252 0b3c 1d87 243e 2ceb b43d b9bd f83c
00000360: 2c7b 663d e385 8abd 907d ddbc 3f4d b03d
00000370: d230 f4bc bcb4 89bb 49ad aa3d e221 fe3c
00000380: 6dda 6ebd 7913 13bd d312 d73b b114 6cbd
00000390: 6729 bcbb 7aa9 84bd 3912 fbbd 24f3 9c3b
000003a0: a75a ea3d 7852 f13d eba8 8e3d 0879 9a3b
000003b0: 7b10 ce3d 0322 9dbd 746b d63d f300 633b
000003c0: ad2c 23bc 88c0 be3c 9a5f 0a3d a77c c43c
000003d0: 3349 37bd cca3 2b3d 39c1 a4bd 2a30 65bd
000003e0: 6a4d 793c c827 f43c 8c50 abbb 8b2c 853c
000003f0: 163c abbd 23c1 19bc b40b 56bb 535d d9bc

model.3.bias f4 [64]
-0.047051128 -0.03609666 -0.0020819327 0.057929154 0.11154454 0.018637735 -0.042814936 0.10385132
0.115004934 -0.11112932 0.06382898 0.067212604 0.08328647 0.1040686 0.03397195 0.022654083
-0.0016373665 0.027080728 -0.027677305 0.059657678 0.05595949 0.06387455 -0.04860751 0.03379635
0.018134557 -0.031081686 -0.061709616 -0.017818151 -0.03711992 0.03655345 0.08093661 0.001417431
-0.11387445 0.12312782 -0.017114773 0.03452907 0.12674025 -0.04793095 0.050953493 -0.07045417
0.11488664 0.14244065 -0.017692575 0.014454597 -0.0013577144 0.106869206 0.00400781 -0.0019041174
0.061114285 -0.03583277 -0.06045977 -0.03242344 -0.049784545 0.14734066 0.082222536 0.04751218
0.026482258 0.06767057 -0.027819473 0.11643304 0.0008832329 0.022561448 0.09594887 0.019656505
00000000: afb8 40bd 17da 13bd 0971 08bb 1f47 6d3d
00000010: 7771 e43d 2aae 983c b75e 2fbd 00b0 d43d
00000020: b587 eb3d c597 e3bd c5b8 823d c3a6 893d
00000030: 1992 aa3d eb21 d53d 2c26 0b3d 0e95 b93c
00000040: e79c d6ba 67d8 dd3c 84bb e2bc 9c5b 743d
00000050: c735 653d a9d0 823d ab18 47bd 0b6e 0a3d
00000060: ec8e 943c 059f febc 39c3 7cbd 5ff7 91bc
00000070: 0f0b 18bd 12b9 153d 18c2 a53d 18c9 b93a
00000080: 0237 e9bd 702a fc3d 4834 8cbc 5b6e 0d3d
00000090: 32c8 013e 3e53 44bd 9cb4 503d 474a 90bd
000000a0: b049 eb3d f6db 113e 05f0 90bc f9d2 6c3c
000000b0: 56f5 b1ba 3ede da3d f253 833b 9493 f9ba
000000c0: f952 7a3d 62c5 12bd aaa4 77bd 71ce 04bd
000000d0: e1ea 4bbd 78e0 163e 4a64 a83d 229c 423d
000000e0: 52f1 d83c de96 8a3d aae5 e3bc 7274 ee3d
000000f0: c288 673a c9d2 b83c d780 c43d ae06 a13c

model.6.weight f4 [1, 64]
-0.120703764 -0.054486834 -0.14913464 0.09896602 0.046041396 0.12768997 -0.10242151 0.108183995
0.055291213 -0.100778386 0.10712535 0.11174598 0.0947046 0.12463308 0.05034042 0.15676837
0.049848657 -0.09252011 -0.06147895 -0.13826087 0.110828 -0.08976204 -0.10887902 -0.09908085
-0.111745246 -0.16736828 -0.16481286 -0.14415029 -0.08360636 0.045462966 0.1352725 0.1124531
-0.12891465 0.12611012 -0.06656676 -0.09582507 0.043472447 -0.10031315 -0.090539746 -0.12738769
0.04742382 0.058563426 -0.10142218 0.12709643 0.07126518 0.044179138 0.09796464 -0.1170991
-0.06557548 0.121421315 -0.13078852 0.09054383 -0.08804359 0.07133868 0.07427837 -0.16959333
0.17198125 0.076725006 -0.075269744 0.0814253 -0.108551234 -0.066404365 0.038127493 0.13421018
00000000: 8933 f7bd 962d 5fbd c0b6 18be b2ae ca3d
00000010: e795 3c3d 29c1 023e 5ec2 d1bd 928f dd3d
00000020: 0a79 623d e664 cebd 8964 db3d 14db e43d
00000030: 7cf4 c13d a13f ff3d c231 4e3d e387 203e
00000040: 1b2e 4c3d 2f7b bdbd 5ad1 7bbd 4294 0dbe
00000050: caf9 e23d 29d5 b7bd f7fb debd e7ea cabd
00000060: b1da e4bd 9762 2bbe b4c4 28be 229c 13be
00000070: d039 abbd 6037 3a3d e084 0a3e d04d e63d
00000080: 3402 04be 0323 013e 2754 88bd ef3f c4bd
00000090: 2a10 323d fb70 cdbd e76c b9bd eb71 02be
000000a0: 7b3f 423d 34e0 6f3d 6fb6 cfbd 9125 023e
000000b0: 7bf3 913d 2ff5 343d afa1 c83d a7d1 efbd
000000c0: 704c 86bd bdab f83d 6ded 05be 0b6f b93d
000000d0: 3350 b4bd 041a 923d 421f 983d e0a9 2dbe
000000e0: da1b 303e 0022 9d3d 0627 9abd 4fc2 a63d
000000f0: 1c50 debd 03ff 87bd 932b 1c3d 656e 093e
